…
2025-05-09 14:53:53,740 - ROBOTEK - INFO - Kişi person8: 80 ses dosyası eklendi
2025-05-09 14:53:54,221 - ROBOTEK - INFO - Kişi person9: 472 ses dosyası eklendi
2025-05-09 14:53:54,221 - ROBOTEK - INFO - Toplam 3999 ses dosyası, 9 kişi bulundu.
2025-05-09 14:53:54,223 - ROBOTEK - INFO - Eğitim seti: 3599 örnek
2025-05-09 14:53:54,223 - ROBOTEK - INFO - Test seti: 400 örnek
2025-05-09 14:53:54,224 - ROBOTEK - INFO - 2. Model oluşturuluyor...
2025-05-09 14:53:54,224 - ROBOTEK - INFO - Model oluşturuluyor, sınıf sayısı: 10
2025-05-09 14:53:54,379 - ROBOTEK - INFO - Model Mimarisi:
FinalModel(
  (conv1): Conv2d(1, 32, kernel_size=(3, 3), stride=(1, 1), padding=(1, 1))
  (bn1): BatchNorm2d(32, eps=1e-05, momentum=0.05, affine=True, track_running_stats=True)
  (relu): ReLU(inplace=True)
  (residual1): ResidualBlock(
    (conv1): Conv2d(32, 64, kernel_size=(3, 3), stride=(1, 1), padding=(1, 1))
    (bn1): BatchNorm2d(64, eps=1e-05, momentum=0.05, affine=True, track_running_stats=True)
    (relu): ReLU(inplace=True)
    (conv2): Conv2d(64, 64, kernel_size=(3, 3), stride=(1, 1), padding=(1, 1))
    (bn2): BatchNorm2d(64, eps=1e-05, momentum=0.05, affine=True, track_running_stats=True)
    (shortcut): Sequential(
      (0): Conv2d(32, 64, kernel_size=(1, 1), stride=(1, 1))
      (1): BatchNorm2d(64, eps=1e-05, momentum=0.05, affine=True, track_running_stats=True)
    )
  )
  (residual2): ResidualBlock(
    (conv1): Conv2d(64, 128, kernel_size=(3, 3), stride=(1, 1), padding=(1, 1))
    (bn1): BatchNorm2d(128, eps=1e-05, momentum=0.05, affine=True, track_running_stats=True)
    (relu): ReLU(inplace=True)
    (conv2): Conv2d(128, 128, kernel_size=(3, 3), stride=(1, 1), padding=(1, 1))
    (bn2): BatchNorm2d(128, eps=1e-05, momentum=0.05, affine=True, track_running_stats=True)
    (shortcut): Sequential(
      (0): Conv2d(64, 128, kernel_size=(1, 1), stride=(1, 1))
      (1): BatchNorm2d(128, eps=1e-05, momentum=0.05, affine=True, track_running_stats=True)
    )
  )
  (residual3): ResidualBlock(
    (conv1): Conv2d(128, 256, kernel_size=(3, 3), stride=(1, 1), padding=(1, 1))
    (bn1): BatchNorm2d(256, eps=1e-05, momentum=0.05, affine=True, track_running_stats=True)
    (relu): ReLU(inplace=True)
    (conv2): Conv2d(256, 256, kernel_size=(3, 3), stride=(1, 1), padding=(1, 1))
    (bn2): BatchNorm2d(256, eps=1e-05, momentum=0.05, affine=True, track_running_stats=True)
    (shortcut): Sequential(
      (0): Conv2d(128, 256, kernel_size=(1, 1), stride=(1, 1))
      (1): BatchNorm2d(256, eps=1e-05, momentum=0.05, affine=True, track_running_stats=True)
    )
  )
  (pool): MaxPool2d(kernel_size=2, stride=2, padding=0, dilation=1, ceil_mode=False)
  (global_pool): AdaptiveAvgPool2d(output_size=1)
  (dropout): Dropout(p=0.5, inplace=False)
  (fc1): Linear(in_features=256, out_features=512, bias=True)
  (bn_fc1): BatchNorm1d(512, eps=1e-05, momentum=0.1, affine=True, track_running_stats=True)
  (fc2): Linear(in_features=512, out_features=10, bias=True)
)
2025-05-09 14:53:54,380 - ROBOTEK - INFO - Toplam öğrenilebilir parametre sayısı: 1,346,378
2025-05-09 14:53:54,380 - ROBOTEK - INFO - 3. Model eğitiliyor...
2025-05-09 14:54:07,175 - ROBOTEK - INFO - Epoch 1/20:
Train Loss: 1.0938 | Train Acc: 78.66%
Test Loss: 0.3796 | Test Acc: 95.75%
Precision: 0.9400 | Recall: 0.9575 | F1: 0.9479 | Macro F1: 0.8689
…
